#loc = loc("/opt/conda/envs/rl/lib/python3.10/site-packages/vllm/attention/ops/prefix_prefill.py":36:0)
#loc1 = loc(unknown)
#loc76 = loc("/opt/conda/envs/rl/lib/python3.10/site-packages/vllm/attention/ops/prefix_prefill.py":190:38)
#loc83 = loc("/opt/conda/envs/rl/lib/python3.10/site-packages/vllm/attention/ops/prefix_prefill.py":192:22)
#loc135 = loc("/opt/conda/envs/rl/lib/python3.10/site-packages/vllm/attention/ops/prefix_prefill.py":252:38)
#loc140 = loc("/opt/conda/envs/rl/lib/python3.10/site-packages/vllm/attention/ops/prefix_prefill.py":254:22)
#loc164 = loc(callsite(#loc1 at #loc76))
#loc167 = loc(callsite(#loc1 at #loc83))
#loc170 = loc(callsite(#loc1 at #loc135))
#loc172 = loc(callsite(#loc1 at #loc140))
module {
  tt.func public @_fwd_kernel(%arg0: !tt.ptr<bf16> {tt.divisibility = 16 : i32} loc("/opt/conda/envs/rl/lib/python3.10/site-packages/vllm/attention/ops/prefix_prefill.py":36:0), %arg1: !tt.ptr<bf16> {tt.divisibility = 16 : i32} loc("/opt/conda/envs/rl/lib/python3.10/site-packages/vllm/attention/ops/prefix_prefill.py":36:0), %arg2: !tt.ptr<bf16> {tt.divisibility = 16 : i32} loc("/opt/conda/envs/rl/lib/python3.10/site-packages/vllm/attention/ops/prefix_prefill.py":36:0), %arg3: !tt.ptr<bf16> {tt.divisibility = 16 : i32} loc("/opt/conda/envs/rl/lib/python3.10/site-packages/vllm/attention/ops/prefix_prefill.py":36:0), %arg4: !tt.ptr<bf16> {tt.divisibility = 16 : i32} loc("/opt/conda/envs/rl/lib/python3.10/site-packages/vllm/attention/ops/prefix_prefill.py":36:0), %arg5: !tt.ptr<i32> {tt.divisibility = 16 : i32} loc("/opt/conda/envs/rl/lib/python3.10/site-packages/vllm/attention/ops/prefix_prefill.py":36:0), %arg6: f32 loc("/opt/conda/envs/rl/lib/python3.10/site-packages/vllm/attention/ops/prefix_prefill.py":36:0), %arg7: !tt.ptr<f32> {tt.divisibility = 16 : i32} loc("/opt/conda/envs/rl/lib/python3.10/site-packages/vllm/attention/ops/prefix_prefill.py":36:0), %arg8: !tt.ptr<f32> {tt.divisibility = 16 : i32} loc("/opt/conda/envs/rl/lib/python3.10/site-packages/vllm/attention/ops/prefix_prefill.py":36:0), %arg9: !tt.ptr<i32> {tt.divisibility = 16 : i32} loc("/opt/conda/envs/rl/lib/python3.10/site-packages/vllm/attention/ops/prefix_prefill.py":36:0), %arg10: !tt.ptr<i32> {tt.divisibility = 16 : i32} loc("/opt/conda/envs/rl/lib/python3.10/site-packages/vllm/attention/ops/prefix_prefill.py":36:0), %arg11: !tt.ptr<bf16> {tt.divisibility = 16 : i32} loc("/opt/conda/envs/rl/lib/python3.10/site-packages/vllm/attention/ops/prefix_prefill.py":36:0), %arg12: i32 loc("/opt/conda/envs/rl/lib/python3.10/site-packages/vllm/attention/ops/prefix_prefill.py":36:0), %arg13: i32 {tt.divisibility = 16 : i32} loc("/opt/conda/envs/rl/lib/python3.10/site-packages/vllm/attention/ops/prefix_prefill.py":36:0), %arg14: i32 {tt.divisibility = 16 : i32} loc("/opt/conda/envs/rl/lib/python3.10/site-packages/vllm/attention/ops/prefix_prefill.py":36:0), %arg15: i32 {tt.divisibility = 16 : i32} loc("/opt/conda/envs/rl/lib/python3.10/site-packages/vllm/attention/ops/prefix_prefill.py":36:0), %arg16: i32 {tt.divisibility = 16 : i32} loc("/opt/conda/envs/rl/lib/python3.10/site-packages/vllm/attention/ops/prefix_prefill.py":36:0), %arg17: i32 {tt.divisibility = 16 : i32} loc("/opt/conda/envs/rl/lib/python3.10/site-packages/vllm/attention/ops/prefix_prefill.py":36:0), %arg18: i32 {tt.divisibility = 16 : i32} loc("/opt/conda/envs/rl/lib/python3.10/site-packages/vllm/attention/ops/prefix_prefill.py":36:0), %arg19: i32 {tt.divisibility = 16 : i32} loc("/opt/conda/envs/rl/lib/python3.10/site-packages/vllm/attention/ops/prefix_prefill.py":36:0), %arg20: i32 {tt.divisibility = 16 : i32} loc("/opt/conda/envs/rl/lib/python3.10/site-packages/vllm/attention/ops/prefix_prefill.py":36:0), %arg21: i32 {tt.divisibility = 16 : i32} loc("/opt/conda/envs/rl/lib/python3.10/site-packages/vllm/attention/ops/prefix_prefill.py":36:0), %arg22: i32 {tt.divisibility = 16 : i32} loc("/opt/conda/envs/rl/lib/python3.10/site-packages/vllm/attention/ops/prefix_prefill.py":36:0), %arg23: i32 {tt.divisibility = 16 : i32} loc("/opt/conda/envs/rl/lib/python3.10/site-packages/vllm/attention/ops/prefix_prefill.py":36:0), %arg24: i32 {tt.divisibility = 16 : i32} loc("/opt/conda/envs/rl/lib/python3.10/site-packages/vllm/attention/ops/prefix_prefill.py":36:0), %arg25: i32 {tt.divisibility = 16 : i32} loc("/opt/conda/envs/rl/lib/python3.10/site-packages/vllm/attention/ops/prefix_prefill.py":36:0), %arg26: i32 {tt.divisibility = 16 : i32} loc("/opt/conda/envs/rl/lib/python3.10/site-packages/vllm/attention/ops/prefix_prefill.py":36:0)) attributes {noinline = false} {
    %cst = arith.constant dense<0.000000e+00> : tensor<128x64xf32> loc(#loc1)
    %cst_0 = arith.constant dense<0.000000e+00> : tensor<128x16xf32> loc(#loc1)
    %cst_1 = arith.constant dense<0.000000e+00> : tensor<128x128xf32> loc(#loc1)
    %cst_2 = arith.constant dense<0.000000e+00> : tensor<64x128xbf16> loc(#loc1)
    %cst_3 = arith.constant dense<0.000000e+00> : tensor<128x64xbf16> loc(#loc1)
    %c64_i32 = arith.constant 64 : i32 loc(#loc1)
    %cst_4 = arith.constant dense<0.000000e+00> : tensor<16x128xbf16> loc(#loc1)
    %cst_5 = arith.constant dense<0.000000e+00> : tensor<128x16xbf16> loc(#loc1)
    %c0_i32 = arith.constant 0 : i32 loc(#loc1)
    %cst_6 = arith.constant dense<0.000000e+00> : tensor<128x128xbf16> loc(#loc1)
    %cst_7 = arith.constant dense<0xFF800000> : tensor<128x64xf32> loc(#loc1)
    %cst_8 = arith.constant dense<0xFF800000> : tensor<128x16xf32> loc(#loc1)
    %cst_9 = arith.constant dense<8> : tensor<1x16xi32> loc(#loc1)
    %cst_10 = arith.constant dense<16> : tensor<1x16xi32> loc(#loc1)
    %cst_11 = arith.constant dense<8> : tensor<128x1xi32> loc(#loc1)
    %c16_i32 = arith.constant 16 : i32 loc(#loc1)
    %cst_12 = arith.constant dense<1.000000e+00> : tensor<128xf32> loc(#loc1)
    %cst_13 = arith.constant dense<0xFF800000> : tensor<128xf32> loc(#loc1)
    %cst_14 = arith.constant dense<0> : tensor<128xi32> loc(#loc1)
    %cst_15 = arith.constant dense<1> : tensor<128xi32> loc(#loc1)
    %cst_16 = arith.constant dense<128> : tensor<128xi32> loc(#loc1)
    %c128_i32 = arith.constant 128 : i32 loc(#loc1)
    %c1_i32 = arith.constant 1 : i32 loc(#loc1)
    %c6_i32 = arith.constant 6 : i32 loc(#loc1)
    %0 = tt.get_program_id x : i32 loc(#loc2)
    %1 = tt.get_program_id y : i32 loc(#loc3)
    %2 = tt.get_program_id z : i32 loc(#loc4)
    %3 = arith.divsi %1, %c6_i32 : i32 loc(#loc5)
    %4 = tt.addptr %arg10, %0 : !tt.ptr<i32>, i32 loc(#loc6)
    %5 = tt.load %4 : !tt.ptr<i32> loc(#loc7)
    %6 = tt.addptr %arg9, %0 : !tt.ptr<i32>, i32 loc(#loc8)
    %7 = tt.load %6 : !tt.ptr<i32> loc(#loc9)
    %8 = tt.addptr %6, %c1_i32 : !tt.ptr<i32>, i32 loc(#loc10)
    %9 = tt.load %8 : !tt.ptr<i32> loc(#loc11)
    %10 = arith.subi %9, %7 : i32 loc(#loc12)
    %11 = arith.subi %5, %10 : i32 loc(#loc13)
    %12 = arith.muli %2, %c128_i32 : i32 loc(#loc14)
    %13 = tt.make_range {end = 16 : i32, start = 0 : i32} : tensor<16xi32> loc(#loc15)
    %14 = tt.make_range {end = 64 : i32, start = 0 : i32} : tensor<64xi32> loc(#loc16)
    %15 = tt.make_range {end = 128 : i32, start = 0 : i32} : tensor<128xi32> loc(#loc17)
    %16 = tt.splat %12 : i32 -> tensor<128xi32> loc(#loc18)
    %17 = arith.addi %16, %15 : tensor<128xi32> loc(#loc18)
    %18 = tt.expand_dims %17 {axis = 1 : i32} : tensor<128xi32> -> tensor<128x1xi32> loc(#loc19)
    %19 = tt.splat %7 : i32 -> tensor<128x1xi32> loc(#loc20)
    %20 = arith.addi %19, %18 : tensor<128x1xi32> loc(#loc20)
    %21 = tt.splat %arg13 : i32 -> tensor<128x1xi32> loc(#loc21)
    %22 = arith.muli %20, %21 : tensor<128x1xi32> loc(#loc21)
    %23 = arith.muli %1, %arg14 : i32 loc(#loc22)
    %24 = tt.splat %23 : i32 -> tensor<128x1xi32> loc(#loc23)
    %25 = arith.addi %22, %24 : tensor<128x1xi32> loc(#loc23)
    %26 = tt.expand_dims %15 {axis = 0 : i32} : tensor<128xi32> -> tensor<1x128xi32> loc(#loc24)
    %27 = tt.broadcast %25 : tensor<128x1xi32> -> tensor<128x128xi32> loc(#loc25)
    %28 = tt.broadcast %26 : tensor<1x128xi32> -> tensor<128x128xi32> loc(#loc25)
    %29 = arith.addi %27, %28 : tensor<128x128xi32> loc(#loc25)
    %30 = arith.cmpi slt, %15, %cst_16 : tensor<128xi32> loc(#loc26)
    %31 = arith.select %30, %cst_15, %cst_14 : tensor<128xi1>, tensor<128xi32> loc(#loc27)
    %32 = arith.cmpi ne, %31, %cst_14 : tensor<128xi32> loc(#loc28)
    %33 = tt.expand_dims %32 {axis = 0 : i32} : tensor<128xi1> -> tensor<1x128xi1> loc(#loc29)
    %34 = tt.splat %10 : i32 -> tensor<128x1xi32> loc(#loc30)
    %35 = arith.cmpi slt, %18, %34 : tensor<128x1xi32> loc(#loc30)
    %36 = tt.broadcast %33 : tensor<1x128xi1> -> tensor<128x128xi1> loc(#loc31)
    %37 = tt.broadcast %35 : tensor<128x1xi1> -> tensor<128x128xi1> loc(#loc31)
    %38 = arith.andi %36, %37 : tensor<128x128xi1> loc(#loc31)
    %39 = tt.splat %arg0 : !tt.ptr<bf16> -> tensor<128x128x!tt.ptr<bf16>> loc(#loc32)
    %40 = tt.addptr %39, %29 : tensor<128x128x!tt.ptr<bf16>>, tensor<128x128xi32> loc(#loc32)
    %41 = tt.load %40, %38, %cst_6 : tensor<128x128x!tt.ptr<bf16>> loc(#loc33)
    %42 = arith.muli %0, %arg12 : i32 loc(#loc34)
    %43 = tt.addptr %arg5, %42 : !tt.ptr<i32>, i32 loc(#loc35)
    %44 = arith.muli %3, %arg22 : i32 loc(#loc36)
    %45 = tt.expand_dims %15 {axis = 1 : i32} : tensor<128xi32> -> tensor<128x1xi32> loc(#loc37)
    %46 = arith.divsi %45, %cst_11 : tensor<128x1xi32> loc(#loc38)
    %47 = tt.splat %arg23 : i32 -> tensor<128x1xi32> loc(#loc39)
    %48 = arith.muli %46, %47 : tensor<128x1xi32> loc(#loc39)
    %49 = tt.expand_dims %13 {axis = 0 : i32} : tensor<16xi32> -> tensor<1x16xi32> loc(#loc40)
    %50 = arith.remsi %45, %cst_11 : tensor<128x1xi32> loc(#loc41)
    %51 = tt.broadcast %50 : tensor<128x1xi32> -> tensor<128x16xi32> loc(#loc42)
    %52 = arith.muli %3, %arg25 : i32 loc(#loc43)
    %53 = tt.splat %arg26 : i32 -> tensor<1x128xi32> loc(#loc44)
    %54 = arith.muli %26, %53 : tensor<1x128xi32> loc(#loc44)
    %55 = tt.expand_dims %13 {axis = 1 : i32} : tensor<16xi32> -> tensor<16x1xi32> loc(#loc45)
    %56 = tt.broadcast %55 : tensor<16x1xi32> -> tensor<16x128xi32> loc(#loc46)
    %57 = tt.splat %11 : i32 -> tensor<1x16xi32> loc(#loc47)
    %58 = tt.splat %arg6 : f32 -> tensor<128x16xf32> loc(#loc48)
    %59 = arith.subi %11, %c0_i32 : i32 loc(#loc49)
    %c1_i32_17 = arith.constant 1 : i32 loc(#loc49)
    %60 = arith.subi %c16_i32, %c1_i32_17 : i32 loc(#loc49)
    %61 = arith.addi %59, %60 : i32 loc(#loc49)
    %62 = arith.divui %61, %c16_i32 : i32 loc(#loc49)
    %c4_i32 = arith.constant 4 : i32 loc(#loc49)
    %63 = arith.remsi %62, %c4_i32 : i32 loc(#loc49)
    %64 = arith.subi %62, %63 : i32 loc(#loc49)
    %65 = arith.muli %64, %c16_i32 : i32 loc(#loc49)
    %66 = arith.addi %c0_i32, %65 : i32 loc(#loc49)
    %67 = arith.muli %c16_i32, %c4_i32 : i32 loc(#loc49)
    %68:3 = scf.for %arg27 = %c0_i32 to %66 step %67 iter_args(%arg28 = %cst_1, %arg29 = %cst_12, %arg30 = %cst_13) -> (tensor<128x128xf32>, tensor<128xf32>, tensor<128xf32>)  : i32 {
      %119 = arith.divsi %arg27, %c16_i32 : i32 loc(#loc50)
      %120 = tt.addptr %43, %119 : !tt.ptr<i32>, i32 loc(#loc51)
      %121 = tt.load %120 : !tt.ptr<i32> loc(#loc52)
      %122 = arith.muli %121, %arg21 : i32 loc(#loc53)
      %123 = arith.addi %122, %44 : i32 loc(#loc54)
      %124 = tt.splat %123 : i32 -> tensor<128x1xi32> loc(#loc55)
      %125 = arith.addi %124, %48 : tensor<128x1xi32> loc(#loc55)
      %126 = tt.splat %arg27 : i32 -> tensor<1x16xi32> loc(#loc56)
      %127 = arith.addi %126, %49 : tensor<1x16xi32> loc(#loc56)
      %128 = arith.remsi %127, %cst_10 : tensor<1x16xi32> loc(#loc57)
      %129 = arith.muli %128, %cst_9 : tensor<1x16xi32> loc(#loc58)
      %130 = tt.broadcast %125 : tensor<128x1xi32> -> tensor<128x16xi32> loc(#loc59)
      %131 = tt.broadcast %129 : tensor<1x16xi32> -> tensor<128x16xi32> loc(#loc59)
      %132 = arith.addi %130, %131 : tensor<128x16xi32> loc(#loc59)
      %133 = arith.addi %132, %51 : tensor<128x16xi32> loc(#loc42)
      %134 = arith.muli %121, %arg24 : i32 loc(#loc60)
      %135 = arith.addi %134, %52 : i32 loc(#loc61)
      %136 = tt.splat %135 : i32 -> tensor<1x128xi32> loc(#loc62)
      %137 = arith.addi %136, %54 : tensor<1x128xi32> loc(#loc62)
      %138 = tt.broadcast %137 : tensor<1x128xi32> -> tensor<16x128xi32> loc(#loc46)
      %139 = arith.addi %138, %56 : tensor<16x128xi32> loc(#loc46)
      %140 = arith.addi %arg27, %c16_i32 : i32 loc(#loc63)
      %141 = arith.cmpi sgt, %140, %11 : i32 loc(#loc64)
      %142 = scf.if %141 -> (tensor<128x16xbf16>) {
        %309 = tt.expand_dims %32 {axis = 1 : i32} : tensor<128xi1> -> tensor<128x1xi1> loc(#loc66)
        %310 = tt.splat %11 : i32 -> tensor<1x16xi32> loc(#loc67)
        %311 = arith.cmpi slt, %127, %310 : tensor<1x16xi32> loc(#loc67)
        %312 = tt.broadcast %309 : tensor<128x1xi1> -> tensor<128x16xi1> loc(#loc68)
        %313 = tt.broadcast %311 : tensor<1x16xi1> -> tensor<128x16xi1> loc(#loc68)
        %314 = arith.andi %312, %313 : tensor<128x16xi1> loc(#loc68)
        %315 = tt.splat %arg3 : !tt.ptr<bf16> -> tensor<128x16x!tt.ptr<bf16>> loc(#loc69)
        %316 = tt.addptr %315, %133 : tensor<128x16x!tt.ptr<bf16>>, tensor<128x16xi32> loc(#loc69)
        %317 = tt.load %316, %314, %cst_5 : tensor<128x16x!tt.ptr<bf16>> loc(#loc70)
        scf.yield %317 : tensor<128x16xbf16> loc(#loc70)
      } else {
        %309 = tt.splat %arg3 : !tt.ptr<bf16> -> tensor<128x16x!tt.ptr<bf16>> loc(#loc71)
        %310 = tt.addptr %309, %133 : tensor<128x16x!tt.ptr<bf16>>, tensor<128x16xi32> loc(#loc71)
        %311 = tt.load %310 : tensor<128x16x!tt.ptr<bf16>> loc(#loc72)
        scf.yield %311 : tensor<128x16xbf16> loc(#loc72)
      } loc(#loc65)
      %143 = tt.dot %41, %142, %cst_0, inputPrecision = tf32 : tensor<128x128xbf16> * tensor<128x16xbf16> -> tensor<128x16xf32> loc(#loc73)
      %144 = arith.cmpi slt, %127, %57 : tensor<1x16xi32> loc(#loc47)
      %145 = tt.broadcast %144 : tensor<1x16xi1> -> tensor<128x16xi1> loc(#loc74)
      %146 = arith.select %145, %143, %cst_8 : tensor<128x16xi1>, tensor<128x16xf32> loc(#loc74)
      %147 = arith.mulf %146, %58 : tensor<128x16xf32> loc(#loc48)
      %148 = "tt.reduce"(%147) <{axis = 1 : i32}> ({
      ^bb0(%arg31: f32 loc(callsite(#loc1 at #loc76)), %arg32: f32 loc(callsite(#loc1 at #loc76))):
        %309 = arith.maxnumf %arg31, %arg32 : f32 loc(#loc173)
        tt.reduce.return %309 : f32 loc(#loc163)
      }) : (tensor<128x16xf32>) -> tensor<128xf32> loc(#loc163)
      %149 = arith.maxnumf %arg30, %148 : tensor<128xf32> loc(#loc78)
      %150 = tt.expand_dims %149 {axis = 1 : i32} : tensor<128xf32> -> tensor<128x1xf32> loc(#loc79)
      %151 = tt.broadcast %150 : tensor<128x1xf32> -> tensor<128x16xf32> loc(#loc80)
      %152 = arith.subf %147, %151 : tensor<128x16xf32> loc(#loc80)
      %153 = math.exp %152 : tensor<128x16xf32> loc(#loc81)
      %154 = "tt.reduce"(%153) <{axis = 1 : i32}> ({
      ^bb0(%arg31: f32 loc(callsite(#loc1 at #loc83)), %arg32: f32 loc(callsite(#loc1 at #loc83))):
        %309 = arith.addf %arg31, %arg32 : f32 loc(#loc174)
        tt.reduce.return %309 : f32 loc(#loc166)
      }) : (tensor<128x16xf32>) -> tensor<128xf32> loc(#loc166)
      %155 = arith.subf %arg30, %149 : tensor<128xf32> loc(#loc85)
      %156 = math.exp %155 : tensor<128xf32> loc(#loc86)
      %157 = tt.expand_dims %156 {axis = 1 : i32} : tensor<128xf32> -> tensor<128x1xf32> loc(#loc87)
      %158 = tt.broadcast %157 : tensor<128x1xf32> -> tensor<128x128xf32> loc(#loc88)
      %159 = arith.mulf %arg28, %158 : tensor<128x128xf32> loc(#loc88)
      %160 = scf.if %141 -> (tensor<16x128xbf16>) {
        %309 = tt.splat %arg27 : i32 -> tensor<16x1xi32> loc(#loc90)
        %310 = arith.addi %309, %55 : tensor<16x1xi32> loc(#loc90)
        %311 = tt.splat %11 : i32 -> tensor<16x1xi32> loc(#loc91)
        %312 = arith.cmpi slt, %310, %311 : tensor<16x1xi32> loc(#loc91)
        %313 = tt.broadcast %33 : tensor<1x128xi1> -> tensor<16x128xi1> loc(#loc92)
        %314 = tt.broadcast %312 : tensor<16x1xi1> -> tensor<16x128xi1> loc(#loc92)
        %315 = arith.andi %313, %314 : tensor<16x128xi1> loc(#loc92)
        %316 = tt.splat %arg4 : !tt.ptr<bf16> -> tensor<16x128x!tt.ptr<bf16>> loc(#loc93)
        %317 = tt.addptr %316, %139 : tensor<16x128x!tt.ptr<bf16>>, tensor<16x128xi32> loc(#loc93)
        %318 = tt.load %317, %315, %cst_4 : tensor<16x128x!tt.ptr<bf16>> loc(#loc94)
        scf.yield %318 : tensor<16x128xbf16> loc(#loc94)
      } else {
        %309 = tt.splat %arg4 : !tt.ptr<bf16> -> tensor<16x128x!tt.ptr<bf16>> loc(#loc95)
        %310 = tt.addptr %309, %139 : tensor<16x128x!tt.ptr<bf16>>, tensor<16x128xi32> loc(#loc95)
        %311 = tt.load %310 : tensor<16x128x!tt.ptr<bf16>> loc(#loc96)
        scf.yield %311 : tensor<16x128xbf16> loc(#loc96)
      } loc(#loc89)
      %161 = arith.truncf %153 : tensor<128x16xf32> to tensor<128x16xbf16> loc(#loc97)
      %162 = tt.dot %161, %160, %159, inputPrecision = tf32 : tensor<128x16xbf16> * tensor<16x128xbf16> -> tensor<128x128xf32> loc(#loc98)
      %163 = arith.mulf %arg29, %156 : tensor<128xf32> loc(#loc99)
      %164 = arith.addf %163, %154 : tensor<128xf32> loc(#loc100)
      %c1_i32_18 = arith.constant 1 : i32 loc(#loc49)
      %165 = arith.muli %c16_i32, %c1_i32_18 : i32 loc(#loc49)
      %166 = arith.addi %arg27, %165 : i32 loc(#loc49)
      %167 = arith.divsi %166, %c16_i32 : i32 loc(#loc50)
      %168 = tt.addptr %43, %167 : !tt.ptr<i32>, i32 loc(#loc51)
      %169 = tt.load %168 : !tt.ptr<i32> loc(#loc52)
      %170 = arith.muli %169, %arg21 : i32 loc(#loc53)
      %171 = arith.addi %170, %44 : i32 loc(#loc54)
      %172 = tt.splat %171 : i32 -> tensor<128x1xi32> loc(#loc55)
      %173 = arith.addi %172, %48 : tensor<128x1xi32> loc(#loc55)
      %174 = tt.splat %166 : i32 -> tensor<1x16xi32> loc(#loc56)
      %175 = arith.addi %174, %49 : tensor<1x16xi32> loc(#loc56)
      %176 = arith.remsi %175, %cst_10 : tensor<1x16xi32> loc(#loc57)
      %177 = arith.muli %176, %cst_9 : tensor<1x16xi32> loc(#loc58)
      %178 = tt.broadcast %173 : tensor<128x1xi32> -> tensor<128x16xi32> loc(#loc59)
      %179 = tt.broadcast %177 : tensor<1x16xi32> -> tensor<128x16xi32> loc(#loc59)
      %180 = arith.addi %178, %179 : tensor<128x16xi32> loc(#loc59)
      %181 = arith.addi %180, %51 : tensor<128x16xi32> loc(#loc42)
      %182 = arith.muli %169, %arg24 : i32 loc(#loc60)
      %183 = arith.addi %182, %52 : i32 loc(#loc61)
      %184 = tt.splat %183 : i32 -> tensor<1x128xi32> loc(#loc62)
      %185 = arith.addi %184, %54 : tensor<1x128xi32> loc(#loc62)
      %186 = tt.broadcast %185 : tensor<1x128xi32> -> tensor<16x128xi32> loc(#loc46)
      %187 = arith.addi %186, %56 : tensor<16x128xi32> loc(#loc46)
      %188 = arith.addi %166, %c16_i32 : i32 loc(#loc63)
      %189 = arith.cmpi sgt, %188, %11 : i32 loc(#loc64)
      %190 = scf.if %189 -> (tensor<128x16xbf16>) {
        %309 = tt.expand_dims %32 {axis = 1 : i32} : tensor<128xi1> -> tensor<128x1xi1> loc(#loc66)
        %310 = tt.splat %11 : i32 -> tensor<1x16xi32> loc(#loc67)
        %311 = arith.cmpi slt, %175, %310 : tensor<1x16xi32> loc(#loc67)
        %312 = tt.broadcast %309 : tensor<128x1xi1> -> tensor<128x16xi1> loc(#loc68)
        %313 = tt.broadcast %311 : tensor<1x16xi1> -> tensor<128x16xi1> loc(#loc68)
        %314 = arith.andi %312, %313 : tensor<128x16xi1> loc(#loc68)
        %315 = tt.splat %arg3 : !tt.ptr<bf16> -> tensor<128x16x!tt.ptr<bf16>> loc(#loc69)
        %316 = tt.addptr %315, %181 : tensor<128x16x!tt.ptr<bf16>>, tensor<128x16xi32> loc(#loc69)
        %317 = tt.load %316, %314, %cst_5 : tensor<128x16x!tt.ptr<bf16>> loc(#loc70)
        scf.yield %317 : tensor<128x16xbf16> loc(#loc70)
      } else {
        %309 = tt.splat %arg3 : !tt.ptr<bf16> -> tensor<128x16x!tt.ptr<bf16>> loc(#loc71)
        %310 = tt.addptr %309, %181 : tensor<128x16x!tt.ptr<bf16>>, tensor<128x16xi32> loc(#loc71)
        %311 = tt.load %310 : tensor<128x16x!tt.ptr<bf16>> loc(#loc72)
        scf.yield %311 : tensor<128x16xbf16> loc(#loc72)
      } loc(#loc65)
      %191 = tt.dot %41, %190, %cst_0, inputPrecision = tf32 : tensor<128x128xbf16> * tensor<128x16xbf16> -> tensor<128x16xf32> loc(#loc73)
      %192 = arith.cmpi slt, %175, %57 : tensor<1x16xi32> loc(#loc47)
      %193 = tt.broadcast %192 : tensor<1x16xi1> -> tensor<128x16xi1> loc(#loc74)
      %194 = arith.select %193, %191, %cst_8 : tensor<128x16xi1>, tensor<128x16xf32> loc(#loc74)
      %195 = arith.mulf %194, %58 : tensor<128x16xf32> loc(#loc48)
      %196 = "tt.reduce"(%195) <{axis = 1 : i32}> ({
      ^bb0(%arg31: f32 loc(callsite(#loc1 at #loc76)), %arg32: f32 loc(callsite(#loc1 at #loc76))):
        %309 = arith.maxnumf %arg31, %arg32 : f32 loc(#loc173)
        tt.reduce.return %309 : f32 loc(#loc163)
      }) : (tensor<128x16xf32>) -> tensor<128xf32> loc(#loc163)
      %197 = arith.maxnumf %149, %196 : tensor<128xf32> loc(#loc78)
      %198 = tt.expand_dims %197 {axis = 1 : i32} : tensor<128xf32> -> tensor<128x1xf32> loc(#loc79)
      %199 = tt.broadcast %198 : tensor<128x1xf32> -> tensor<128x16xf32> loc(#loc80)
      %200 = arith.subf %195, %199 : tensor<128x16xf32> loc(#loc80)
      %201 = math.exp %200 : tensor<128x16xf32> loc(#loc81)
      %202 = "tt.reduce"(%201) <{axis = 1 : i32}> ({
      ^bb0(%arg31: f32 loc(callsite(#loc1 at #loc83)), %arg32: f32 loc(callsite(#loc1 at #loc83))):
        %309 = arith.addf %arg31, %arg32 : f32 loc(#loc174)
        tt.reduce.return %309 : f32 loc(#loc166)
      }) : (tensor<128x16xf32>) -> tensor<128xf32> loc(#loc166)
      %203 = arith.subf %149, %197 : tensor<128xf32> loc(#loc85)
      %204 = math.exp %203 : tensor<128xf32> loc(#loc86)
      %205 = tt.expand_dims %204 {axis = 1 : i32} : tensor<128xf32> -> tensor<128x1xf32> loc(#loc87)
      %206 = tt.broadcast %205 : tensor<128x1xf32> -> tensor<128x128xf32> loc(#loc88)
      %207 = arith.mulf %162, %206 : tensor<128x128xf32> loc(#loc88)
      %208 = scf.if %189 -> (tensor<16x128xbf16>) {
        %309 = tt.splat %166 : i32 -> tensor<16x1xi32> loc(#loc90)
        %310 = arith.addi %309, %55 : tensor<16x1xi32> loc(#loc90)
        %311 = tt.splat %11 : i32 -> tensor<16x1xi32> loc(#loc91)
        %312 = arith.cmpi slt, %310, %311 : tensor<16x1xi32> loc(#loc91)
        %313 = tt.broadcast %33 : tensor<1x128xi1> -> tensor<16x128xi1> loc(#loc92)
        %314 = tt.broadcast %312 : tensor<16x1xi1> -> tensor<16x128xi1> loc(#loc92)
        %315 = arith.andi %313, %314 : tensor<16x128xi1> loc(#loc92)
        %316 = tt.splat %arg4 : !tt.ptr<bf16> -> tensor<16x128x!tt.ptr<bf16>> loc(#loc93)
        %317 = tt.addptr %316, %187 : tensor<16x128x!tt.ptr<bf16>>, tensor<16x128xi32> loc(#loc93)
        %318 = tt.load %317, %315, %cst_4 : tensor<16x128x!tt.ptr<bf16>> loc(#loc94)
        scf.yield %318 : tensor<16x128xbf16> loc(#loc94)
      } else {
        %309 = tt.splat %arg4 : !tt.ptr<bf16> -> tensor<16x128x!tt.ptr<bf16>> loc(#loc95)
        %310 = tt.addptr %309, %187 : tensor<16x128x!tt.ptr<bf16>>, tensor<16x128xi32> loc(#loc95)
        %311 = tt.load %310 : tensor<16x128x!tt.ptr<bf16>> loc(#loc96)
        scf.yield %311 : tensor<16x128xbf16> loc(#loc96)
      } loc(#loc89)
      %209 = arith.truncf %201 : tensor<128x16xf32> to tensor<128x16xbf16> loc(#loc97)
      %210 = tt.dot %209, %208, %207, inputPrecision = tf32 : tensor<128x16xbf16> * tensor<16x128xbf16> -> tensor<128x128xf32> loc(#loc98)
      %211 = arith.mulf %164, %204 : tensor<128xf32> loc(#loc99)
      %212 = arith.addf %211, %202 : tensor<128xf32> loc(#loc100)
      %c2_i32 = arith.constant 2 : i32 loc(#loc49)
      %213 = arith.muli %c16_i32, %c2_i32 : i32 loc(#loc49)
      %214 = arith.addi %arg27, %213 : i32 loc(#loc49)
      %215 = arith.divsi %214, %c16_i32 : i32 loc(#loc50)
      %216 = tt.addptr %43, %215 : !tt.ptr<i32>, i32 loc(#loc51)
      %217 = tt.load %216 : !tt.ptr<i32> loc(#loc52)
      %218 = arith.muli %217, %arg21 : i32 loc(#loc53)
      %219 = arith.addi %218, %44 : i32 loc(#loc54)
      %220 = tt.splat %219 : i32 -> tensor<128x1xi32> loc(#loc55)
      %221 = arith.addi %220, %48 : tensor<128x1xi32> loc(#loc55)
      %222 = tt.splat %214 : i32 -> tensor<1x16xi32> loc(#loc56)
      %223 = arith.addi %222, %49 : tensor<1x16xi32> loc(#loc56)
      %224 = arith.remsi %223, %cst_10 : tensor<1x16xi32> loc(#loc57)
      %225 = arith.muli %224, %cst_9 : tensor<1x16xi32> loc(#loc58)
      %226 = tt.broadcast %221 : tensor<128x1xi32> -> tensor<128x16xi32> loc(#loc59)
      %227 = tt.broadcast %225 : tensor<1x16xi32> -> tensor<128x16xi32> loc(#loc59)
      %228 = arith.addi %226, %227 : tensor<128x16xi32> loc(#loc59)
      %229 = arith.addi %228, %51 : tensor<128x16xi32> loc(#loc42)
      %230 = arith.muli %217, %arg24 : i32 loc(#loc60)
      %231 = arith.addi %230, %52 : i32 loc(#loc61)
      %232 = tt.splat %231 : i32 -> tensor<1x128xi32> loc(#loc62)
      %233 = arith.addi %232, %54 : tensor<1x128xi32> loc(#loc62)
      %234 = tt.broadcast %233 : tensor<1x128xi32> -> tensor<16x128xi32> loc(#loc46)
      %235 = arith.addi %234, %56 : tensor<16x128xi32> loc(#loc46)
      %236 = arith.addi %214, %c16_i32 : i32 loc(#loc63)
      %237 = arith.cmpi sgt, %236, %11 : i32 loc(#loc64)
      %238 = scf.if %237 -> (tensor<128x16xbf16>) {
        %309 = tt.expand_dims %32 {axis = 1 : i32} : tensor<128xi1> -> tensor<128x1xi1> loc(#loc66)
        %310 = tt.splat %11 : i32 -> tensor<1x16xi32> loc(#loc67)
        %311 = arith.cmpi slt, %223, %310 : tensor<1x16xi32> loc(#loc67)
        %312 = tt.broadcast %309 : tensor<128x1xi1> -> tensor<128x16xi1> loc(#loc68)
        %313 = tt.broadcast %311 : tensor<1x16xi1> -> tensor<128x16xi1> loc(#loc68)
        %314 = arith.andi %312, %313 : tensor<128x16xi1> loc(#loc68)
        %315 = tt.splat %arg3 : !tt.ptr<bf16> -> tensor<128x16x!tt.ptr<bf16>> loc(#loc69)
        %316 = tt.addptr %315, %229 : tensor<128x16x!tt.ptr<bf16>>, tensor<128x16xi32> loc(#loc69)
        %317 = tt.load %316, %314, %cst_5 : tensor<128x16x!tt.ptr<bf16>> loc(#loc70)
        scf.yield %317 : tensor<128x16xbf16> loc(#loc70)
      } else {
        %309 = tt.splat %arg3 : !tt.ptr<bf16> -> tensor<128x16x!tt.ptr<bf16>> loc(#loc71)
        %310 = tt.addptr %309, %229 : tensor<128x16x!tt.ptr<bf16>>, tensor<128x16xi32> loc(#loc71)
        %311 = tt.load %310 : tensor<128x16x!tt.ptr<bf16>> loc(#loc72)
        scf.yield %311 : tensor<128x16xbf16> loc(#loc72)
      } loc(#loc65)
      %239 = tt.dot %41, %238, %cst_0, inputPrecision = tf32 : tensor<128x128xbf16> * tensor<128x16xbf16> -> tensor<128x16xf32> loc(#loc73)
      %240 = arith.cmpi slt, %223, %57 : tensor<1x16xi32> loc(#loc47)
      %241 = tt.broadcast %240 : tensor<1x16xi1> -> tensor<128x16xi1> loc(#loc74)
      %242 = arith.select %241, %239, %cst_8 : tensor<128x16xi1>, tensor<128x16xf32> loc(#loc74)
      %243 = arith.mulf %242, %58 : tensor<128x16xf32> loc(#loc48)
      %244 = "tt.reduce"(%243) <{axis = 1 : i32}> ({
      ^bb0(%arg31: f32 loc(callsite(#loc1 at #loc76)), %arg32: f32 loc(callsite(#loc1 at #loc76))):
        %309 = arith.maxnumf %arg31, %arg32 : f32 loc(#loc173)
        tt.reduce.return %309 : f32 loc(#loc163)
      }) : (tensor<128x16xf32>) -> tensor<128xf32> loc(#loc163)
      %245 = arith.maxnumf %197, %244 : tensor<128xf32> loc(#loc78)
      %246 = tt.expand_dims %245 {axis = 1 : i32} : tensor<128xf32> -> tensor<128x1xf32> loc(#loc79)
      %247 = tt.broadcast %246 : tensor<128x1xf32> -> tensor<128x16xf32> loc(#loc80)
      %248 = arith.subf %243, %247 : tensor<128x16xf32> loc(#loc80)
      %249 = math.exp %248 : tensor<128x16xf32> loc(#loc81)
      %250 = "tt.reduce"(%249) <{axis = 1 : i32}> ({
      ^bb0(%arg31: f32 loc(callsite(#loc1 at #loc83)), %arg32: f32 loc(callsite(#loc1 at #loc83))):
        %309 = arith.addf %arg31, %arg32 : f32 loc(#loc174)
        tt.reduce.return %309 : f32 loc(#loc166)
      }) : (tensor<128x16xf32>) -> tensor<128xf32> loc(#loc166)
      %251 = arith.subf %197, %245 : tensor<128xf32> loc(#loc85)
      %252 = math.exp %251 : tensor<128xf32> loc(#loc86)
      %253 = tt.expand_dims %252 {axis = 1 : i32} : tensor<128xf32> -> tensor<128x1xf32> loc(#loc87)
      %254 = tt.broadcast %253 : tensor<128x1xf32> -> tensor<128x128xf32> loc(#loc88)
      %255 = arith.mulf %210, %254 : tensor<128x128xf32> loc(#loc88)
      %256 = scf.if %237 -> (tensor<16x128xbf16>) {
        %309 = tt.splat %214 : i32 -> tensor<16x1xi32> loc(#loc90)
        %310 = arith.addi %309, %55 : tensor<16x1xi32> loc(#loc90)
        %311 = tt.splat %11 : i32 -> tensor<16x1xi32> loc(#loc91)
        %312 = arith.cmpi slt, %310, %311 : tensor<16x1xi32> loc(#loc91)
        %313 = tt.broadcast %33 : tensor<1x128xi1> -> tensor<16x128xi1> loc(#loc92)
        %314 = tt.broadcast %312 : tensor<16x1xi1> -> tensor<16x128xi1> loc(#loc92)
        %315 = arith.andi %313, %314 : tensor<16x128xi1> loc(#loc92)
        %316 = tt.splat %arg4 : !tt.ptr<bf16> -> tensor<16x128x!tt.ptr<bf16>> loc(#loc93)
        %317 = tt.addptr %316, %235 : tensor<16x128x!tt.ptr<bf16>>, tensor<16x128xi32> loc(#loc93)
        %318 = tt.load %317, %315, %cst_4 : tensor<16x128x!tt.ptr<bf16>> loc(#loc94)
        scf.yield %318 : tensor<16x128xbf16> loc(#loc94)
      } else {
        %309 = tt.splat %arg4 : !tt.ptr<bf16> -> tensor<16x128x!tt.ptr<bf16>> loc(#loc95)
        %310 = tt.addptr %309, %235 : tensor<16x128x!tt.ptr<bf16>>, tensor<16x128xi32> loc(#loc95)
        %311 = tt.load %310 : tensor<16x128x!tt.ptr<bf16>> loc(#loc96)
        scf.yield %311 : tensor<16x128xbf16> loc(#loc96)
      } loc(#loc89)
      %257 = arith.truncf %249 : tensor<128x16xf32> to tensor<128x16xbf16> loc(#loc97)
      %258 = tt.dot %257, %256, %255, inputPrecision = tf32 : tensor<128x16xbf16> * tensor<16x128xbf16> -> tensor<128x128xf32> loc(#loc98)
      %259 = arith.mulf %212, %252 : tensor<128xf32> loc(#loc99)
      %260 = arith.addf %259, %250 : tensor<128xf32> loc(#loc100)
      %c3_i32 = arith.constant 3 : i32 loc(#loc49)
      %261 = arith.muli %c16_i32, %c3_i32 : i32 loc(#loc49)
      %262 = arith.addi %arg27, %261 : i32 loc(#loc49)
      %263 = arith.divsi %262, %c16_i32 : i32 loc(#loc50)
      %264 = tt.addptr %43, %263 : !tt.ptr<i32>, i32 loc(#loc51)
      %265 = tt.load %264 : !tt.ptr<i32> loc(#loc52)
      %266 = arith.muli %265, %arg21 : i32 loc(#loc53)
      %267 = arith.addi %266, %44 : i32 loc(#loc54)
      %268 = tt.splat %267 : i32 -> tensor<128x1xi32> loc(#loc55)
      %269 = arith.addi %268, %48 : tensor<128x1xi32> loc(#loc55)
      %270 = tt.splat %262 : i32 -> tensor<1x16xi32> loc(#loc56)
      %271 = arith.addi %270, %49 : tensor<1x16xi32> loc(#loc56)
      %272 = arith.remsi %271, %cst_10 : tensor<1x16xi32> loc(#loc57)
      %273 = arith.muli %272, %cst_9 : tensor<1x16xi32> loc(#loc58)
      %274 = tt.broadcast %269 : tensor<128x1xi32> -> tensor<128x16xi32> loc(#loc59)
      %275 = tt.broadcast %273 : tensor<1x16xi32> -> tensor<128x16xi32> loc(#loc59)
      %276 = arith.addi %274, %275 : tensor<128x16xi32> loc(#loc59)
      %277 = arith.addi %276, %51 : tensor<128x16xi32> loc(#loc42)
      %278 = arith.muli %265, %arg24 : i32 loc(#loc60)
      %279 = arith.addi %278, %52 : i32 loc(#loc61)
      %280 = tt.splat %279 : i32 -> tensor<1x128xi32> loc(#loc62)
      %281 = arith.addi %280, %54 : tensor<1x128xi32> loc(#loc62)
      %282 = tt.broadcast %281 : tensor<1x128xi32> -> tensor<16x128xi32> loc(#loc46)
      %283 = arith.addi %282, %56 : tensor<16x128xi32> loc(#loc46)
      %284 = arith.addi %262, %c16_i32 : i32 loc(#loc63)
      %285 = arith.cmpi sgt, %284, %11 : i32 loc(#loc64)
      %286 = scf.if %285 -> (tensor<128x16xbf16>) {
        %309 = tt.expand_dims %32 {axis = 1 : i32} : tensor<128xi1> -> tensor<128x1xi1> loc(#loc66)
        %310 = tt.splat %11 : i32 -> tensor<1x16xi32> loc(#loc67)
        %311 = arith.cmpi slt, %271, %310 : tensor<1x16xi32> loc(#loc67)
        %312 = tt.broadcast %309 : tensor<128x1xi1> -> tensor<128x16xi1> loc(#loc68)
        %313 = tt.broadcast %311 : tensor<1x16xi1> -> tensor<128x16xi1> loc(#loc68)
        %314 = arith.andi %312, %313 : tensor<128x16xi1> loc(#loc68)
        %315 = tt.splat %arg3 : !tt.ptr<bf16> -> tensor<128x16x!tt.ptr<bf16>> loc(#loc69)
        %316 = tt.addptr %315, %277 : tensor<128x16x!tt.ptr<bf16>>, tensor<128x16xi32> loc(#loc69)
        %317 = tt.load %316, %314, %cst_5 : tensor<128x16x!tt.ptr<bf16>> loc(#loc70)
        scf.yield %317 : tensor<128x16xbf16> loc(#loc70)
      } else {
        %309 = tt.splat %arg3 : !tt.ptr<bf16> -> tensor<128x16x!tt.ptr<bf16>> loc(#loc71)
        %310 = tt.addptr %309, %277 : tensor<128x16x!tt.ptr<bf16>>, tensor<128x16xi32> loc(#loc71)
        %311 = tt.load %310 : tensor<128x16x!tt.ptr<bf16>> loc(#loc72)
        scf.yield %311 : tensor<128x16xbf16> loc(#loc72)
      } loc(#loc65)
      %287 = tt.dot %41, %286, %cst_0, inputPrecision = tf32 : tensor<128x128xbf16> * tensor<128x16xbf16> -> tensor<128x16xf32> loc(#loc73)
      %288 = arith.cmpi slt, %271, %57 : tensor<1x16xi32> loc(#loc47)
      %289 = tt.broadcast %288 : tensor<1x16xi1> -> tensor<128x16xi1> loc(#loc74)
      %290 = arith.select %289, %287, %cst_8 : tensor<128x16xi1>, tensor<128x16xf32> loc(#loc74)
      %291 = arith.mulf %290, %58 : tensor<128x16xf32> loc(#loc48)
      %292 = "tt.reduce"(%291) <{axis = 1 : i32}> ({
      ^bb0(%arg31: f32 loc(callsite(#loc1 at #loc76)), %arg32: f32 loc(callsite(#loc1 at #loc76))):
        %309 = arith.maxnumf %arg31, %arg32 : f32 loc(#loc173)
        tt.reduce.return %309 : f32 loc(#loc163)
      }) : (tensor<128x16xf32>) -> tensor<128xf32> loc(#loc163)
      %293 = arith.maxnumf %245, %292 : tensor<128xf32> loc(#loc78)
      %294 = tt.expand_dims %293 {axis = 1 : i32} : tensor<128xf32> -> tensor<128x1xf32> loc(#loc79)
      %295 = tt.broadcast %294 : tensor<128x1xf32> -> tensor<128x16xf32> loc(#loc80)
      %296 = arith.subf %291, %295 : tensor<128x16xf32> loc(#loc80)
      %297 = math.exp %296 : tensor<128x16xf32> loc(#loc81)
      %298 = "tt.reduce"(%297) <{axis = 1 : i32}> ({
      ^bb0(%arg31: f32 loc(callsite(#loc1 at #loc83)), %arg32: f32 loc(callsite(#loc1 at #loc83))):
        %309 = arith.addf %arg31, %arg32 : f32 loc(#loc174)
        tt.reduce.return %309 : f32 loc(#loc166)
      }) : (tensor<128x16xf32>) -> tensor<128xf32> loc(#loc166)
      %299 = arith.subf %245, %293 : tensor<128xf32> loc(#loc85)
      %300 = math.exp %299 : tensor<128xf32> loc(#loc86)
      %301 = tt.expand_dims %300 {axis = 1 : i32} : tensor<128xf32> -> tensor<128x1xf32> loc(#loc87)
      %302 = tt.broadcast %301 : tensor<128x1xf32> -> tensor<128x128xf32> loc(#loc88)
      %303 = arith.mulf %258, %302 : tensor<128x128xf32> loc(#loc88)
      %304 = scf.if %285 -> (tensor<16x128xbf16>) {
        %309 = tt.splat %262 : i32 -> tensor<16x1xi32> loc(#loc90)
        %310 = arith.addi %309, %55 : tensor<16x1xi32> loc(#loc90)
        %311 = tt.splat %11 : i32 -> tensor<16x1xi32> loc(#loc91)
        %312 = arith.cmpi slt, %310, %311 : tensor<16x1xi32> loc(#loc91)
        %313 = tt.broadcast %33 : tensor<1x128xi1> -> tensor<16x128xi1> loc(#loc92)
        %314 = tt.broadcast %312 : tensor<16x1xi1> -> tensor<16x128xi1> loc(#loc92)
        %315 = arith.andi %313, %314 : tensor<16x128xi1> loc(#loc92)
        %316 = tt.splat %arg4 : !tt.ptr<bf16> -> tensor<16x128x!tt.ptr<bf16>> loc(#loc93)
        %317 = tt.addptr %316, %283 : tensor<16x128x!tt.ptr<bf16>>, tensor<16x128xi32> loc(#loc93)
        %318 = tt.load %317, %315, %cst_4 : tensor<16x128x!tt.ptr<bf16>> loc(#loc94)
        scf.yield %318 : tensor<16x128xbf16> loc(#loc94)
      } else {
        %309 = tt.splat %arg4 : !tt.ptr<bf16> -> tensor<16x128x!tt.ptr<bf16>> loc(#loc95)
        %310 = tt.addptr %309, %283 : tensor<16x128x!tt.ptr<bf16>>, tensor<16x128xi32> loc(#loc95)
        %311 = tt.load %310 : tensor<16x128x!tt.ptr<bf16>> loc(#loc96)
        scf.yield %311 : tensor<16x128xbf16> loc(#loc96)
      } loc(#loc89)
      %305 = arith.truncf %297 : tensor<128x16xf32> to tensor<128x16xbf16> loc(#loc97)
      %306 = tt.dot %305, %304, %303, inputPrecision = tf32 : tensor<128x16xbf16> * tensor<16x128xbf16> -> tensor<128x128xf32> loc(#loc98)
      %307 = arith.mulf %260, %300 : tensor<128xf32> loc(#loc99)
      %308 = arith.addf %307, %298 : tensor<128xf32> loc(#loc100)
      scf.yield %306, %308, %293 : tensor<128x128xf32>, tensor<128xf32>, tensor<128xf32> loc(#loc101)
    } {tt.divisibility_arg1 = dense<16> : tensor<1xi32>} loc(#loc49)
    %69:3 = scf.for %arg27 = %66 to %11 step %c16_i32 iter_args(%arg28 = %68#0, %arg29 = %68#1, %arg30 = %68#2) -> (tensor<128x128xf32>, tensor<128xf32>, tensor<128xf32>)  : i32 {
      %119 = arith.divsi %arg27, %c16_i32 : i32 loc(#loc50)
      %120 = tt.addptr %43, %119 : !tt.ptr<i32>, i32 loc(#loc51)
      %121 = tt.load %120 : !tt.ptr<i32> loc(#loc52)
      %122 = arith.muli %121, %arg21 : i32 loc(#loc53)
      %123 = arith.addi %122, %44 : i32 loc(#loc54)
      %124 = tt.splat %123 : i32 -> tensor<128x1xi32> loc(#loc55)
      %125 = arith.addi %124, %48 : tensor<128x1xi32> loc(#loc55)
      %126 = tt.splat %arg27 : i32 -> tensor<1x16xi32> loc(#loc56)
      %127 = arith.addi %126, %49 : tensor<1x16xi32> loc(#loc56)
      %128 = arith.remsi %127, %cst_10 : tensor<1x16xi32> loc(#loc57)
      %129 = arith.muli %128, %cst_9 : tensor<1x16xi32> loc(#loc58)
      %130 = tt.broadcast %125 : tensor<128x1xi32> -> tensor<128x16xi32> loc(#loc59)
      %131 = tt.broadcast %129 : tensor<1x16xi32> -> tensor<128x16xi32> loc(#loc59)
      %132 = arith.addi %130, %131 : tensor<128x16xi32> loc(#loc59)
      %133 = arith.addi %132, %51 : tensor<128x16xi32> loc(#loc42)
      %134 = arith.muli %121, %arg24 : i32 loc(#loc60)
      %135 = arith.addi %134, %52 : i32 loc(#loc61)
      %136 = tt.splat %135 : i32 -> tensor<1x128xi32> loc(#loc62)
      %137 = arith.addi %136, %54 : tensor<1x128xi32> loc(#loc62)
      %138 = tt.broadcast %137 : tensor<1x128xi32> -> tensor<16x128xi32> loc(#loc46)
      %139 = arith.addi %138, %56 : tensor<16x128xi32> loc(#loc46)
      %140 = arith.addi %arg27, %c16_i32 : i32 loc(#loc63)
      %141 = arith.cmpi sgt, %140, %11 : i32 loc(#loc64)
      %142 = scf.if %141 -> (tensor<128x16xbf16>) {
        %165 = tt.expand_dims %32 {axis = 1 : i32} : tensor<128xi1> -> tensor<128x1xi1> loc(#loc66)
        %166 = tt.splat %11 : i32 -> tensor<1x16xi32> loc(#loc67)
        %167 = arith.cmpi slt, %127, %166 : tensor<1x16xi32> loc(#loc67)
        %168 = tt.broadcast %165 : tensor<128x1xi1> -> tensor<128x16xi1> loc(#loc68)
        %169 = tt.broadcast %167 : tensor<1x16xi1> -> tensor<128x16xi1> loc(#loc68)
        %170 = arith.andi %168, %169 : tensor<128x16xi1> loc(#loc68)
        %171 = tt.splat %arg3 : !tt.ptr<bf16> -> tensor<128x16x!tt.ptr<bf16>> loc(#loc69)
        %172 = tt.addptr %171, %133 : tensor<128x16x!tt.ptr<bf16>>, tensor<128x16xi32> loc(#loc69)
        %173 = tt.load %172, %170, %cst_5 : tensor<128x16x!tt.ptr<bf16>> loc(#loc70)
        scf.yield %173 : tensor<128x16xbf16> loc(#loc70)
      } else {
        %165 = tt.splat %arg3 : !tt.ptr<bf16> -> tensor<128x16x!tt.ptr<bf16>> loc(#loc71)
        %166 = tt.addptr %165, %133 : tensor<128x16x!tt.ptr<bf16>>, tensor<128x16xi32> loc(#loc71)
        %167 = tt.load %166 : tensor<128x16x!tt.ptr<bf16>> loc(#loc72)
        scf.yield %167 : tensor<128x16xbf16> loc(#loc72)
      } loc(#loc65)
      %143 = tt.dot %41, %142, %cst_0, inputPrecision = tf32 : tensor<128x128xbf16> * tensor<128x16xbf16> -> tensor<128x16xf32> loc(#loc73)
      %144 = arith.cmpi slt, %127, %57 : tensor<1x16xi32> loc(#loc47)
      %145 = tt.broadcast %144 : tensor<1x16xi1> -> tensor<128x16xi1> loc(#loc74)
      %146 = arith.select %145, %143, %cst_8 : tensor<128x16xi1>, tensor<128x16xf32> loc(#loc74)
      %147 = arith.mulf %146, %58 : tensor<128x16xf32> loc(#loc48)
      %148 = "tt.reduce"(%147) <{axis = 1 : i32}> ({
      ^bb0(%arg31: f32 loc(callsite(#loc1 at #loc76)), %arg32: f32 loc(callsite(#loc1 at #loc76))):
        %165 = arith.maxnumf %arg31, %arg32 : f32 loc(#loc173)
        tt.reduce.return %165 : f32 loc(#loc163)
      }) : (tensor<128x16xf32>) -> tensor<128xf32> loc(#loc163)
      %149 = arith.maxnumf %arg30, %148 : tensor<128xf32> loc(#loc78)
      %150 = tt.expand_dims %149 {axis = 1 : i32} : tensor<128xf32> -> tensor<128x1xf32> loc(#loc79)
      %151 = tt.broadcast %150 : tensor<128x1xf32> -> tensor<128x16xf32> loc(#loc80)
      %152 = arith.subf %147, %151 : tensor<128x16xf32> loc(#loc80)
      %153 = math.exp %152 : tensor<128x16xf32> loc(#loc81)
      %154 = "tt.reduce"(%153) <{axis = 1 : i32}> ({
      ^bb0(%arg31: f32 loc(callsite(#loc1 at #loc83)), %arg32: f32 loc(callsite(#loc1 at #loc83))):
        %165 = arith.addf %arg31, %arg32 : f32 loc(#loc174)
        tt.reduce.return %165 : f32 loc(#loc166)
      }) : (tensor<128x16xf32>) -> tensor<128xf32> loc(#loc166)
      %155 = arith.subf %arg30, %149 : tensor<128xf32> loc(#loc85)
      %156 = math.exp %155 : tensor<128xf32> loc(#loc86)
      %157 = tt.expand_dims %156 {axis = 1 : i32} : tensor<128xf32> -> tensor<128x1xf32> loc(#loc87)
      %158 = tt.broadcast %157 : tensor<128x1xf32> -> tensor<128x128xf32> loc(#loc88)
      %159 = arith.mulf %arg28, %158 : tensor<128x128xf32> loc(#loc88)
      %160 = scf.if %141 -> (tensor<16x128xbf16>) {
        %165 = tt.splat %arg27 : i32 -> tensor<16x1xi32> loc(#loc90)
        %166 = arith.addi %165, %55 : tensor<16x1xi32> loc(#loc90)
        %167 = tt.splat %11 : i32 -> tensor<16x1xi32> loc(#loc91)
        %168 = arith.cmpi slt, %166, %167 : tensor<16x1xi32> loc(#loc91)
        %169 = tt.broadcast %33 : tensor<1x128xi1> -> tensor<16x128xi1> loc(#loc92)
        %170 = tt.broadcast %168 : tensor<16x1xi1> -> tensor<16x128xi1> loc(#loc92)
        %171 = arith.andi %169, %170 : tensor<16x128xi1> loc(#loc92)
        %172 = tt.splat %arg4 : !tt.ptr<bf16> -> tensor<16x128x!tt.ptr<bf16>> loc(#loc93)
        %173 = tt.addptr %172, %139 : tensor<16x128x!tt.ptr<bf16>>, tensor<16x128xi32> loc(#loc93)
        %174 = tt.load %173, %171, %cst_4 : tensor<16x128x!tt.ptr<bf16>> loc(#loc94)
        scf.yield %174 : tensor<16x128xbf16> loc(#loc94)
      } else {
        %165 = tt.splat %arg4 : !tt.ptr<bf16> -> tensor<16x128x!tt.ptr<bf16>> loc(#loc95)
        %166 = tt.addptr %165, %139 : tensor<16x128x!tt.ptr<bf16>>, tensor<16x128xi32> loc(#loc95)
        %167 = tt.load %166 : tensor<16x128x!tt.ptr<bf16>> loc(#loc96)
        scf.yield %167 : tensor<16x128xbf16> loc(#loc96)
      } loc(#loc89)
      %161 = arith.truncf %153 : tensor<128x16xf32> to tensor<128x16xbf16> loc(#loc97)
      %162 = tt.dot %161, %160, %159, inputPrecision = tf32 : tensor<128x16xbf16> * tensor<16x128xbf16> -> tensor<128x128xf32> loc(#loc98)
      %163 = arith.mulf %arg29, %156 : tensor<128xf32> loc(#loc99)
      %164 = arith.addf %163, %154 : tensor<128xf32> loc(#loc100)
      scf.yield %162, %164, %149 : tensor<128x128xf32>, tensor<128xf32>, tensor<128xf32> loc(#loc101)
    } {tt.divisibility_arg1 = dense<16> : tensor<1xi32>} loc(#loc49)
    %70 = tt.expand_dims %14 {axis = 0 : i32} : tensor<64xi32> -> tensor<1x64xi32> loc(#loc102)
    %71 = tt.splat %arg15 : i32 -> tensor<1x64xi32> loc(#loc103)
    %72 = arith.muli %70, %71 : tensor<1x64xi32> loc(#loc103)
    %73 = arith.muli %3, %arg16 : i32 loc(#loc104)
    %74 = tt.splat %73 : i32 -> tensor<1x64xi32> loc(#loc105)
    %75 = arith.addi %72, %74 : tensor<1x64xi32> loc(#loc105)
    %76 = tt.expand_dims %15 {axis = 1 : i32} : tensor<128xi32> -> tensor<128x1xi32> loc(#loc106)
    %77 = tt.broadcast %75 : tensor<1x64xi32> -> tensor<128x64xi32> loc(#loc107)
    %78 = tt.broadcast %76 : tensor<128x1xi32> -> tensor<128x64xi32> loc(#loc107)
    %79 = arith.addi %77, %78 : tensor<128x64xi32> loc(#loc107)
    %80 = tt.expand_dims %14 {axis = 1 : i32} : tensor<64xi32> -> tensor<64x1xi32> loc(#loc108)
    %81 = tt.splat %arg17 : i32 -> tensor<64x1xi32> loc(#loc109)
    %82 = arith.muli %80, %81 : tensor<64x1xi32> loc(#loc109)
    %83 = arith.muli %3, %arg18 : i32 loc(#loc110)
    %84 = tt.splat %83 : i32 -> tensor<64x1xi32> loc(#loc111)
    %85 = arith.addi %82, %84 : tensor<64x1xi32> loc(#loc111)
    %86 = tt.broadcast %85 : tensor<64x1xi32> -> tensor<64x128xi32> loc(#loc112)
    %87 = tt.broadcast %26 : tensor<1x128xi32> -> tensor<64x128xi32> loc(#loc112)
    %88 = arith.addi %86, %87 : tensor<64x128xi32> loc(#loc112)
    %89 = tt.splat %arg1 : !tt.ptr<bf16> -> tensor<128x64x!tt.ptr<bf16>> loc(#loc113)
    %90 = tt.addptr %89, %79 : tensor<128x64x!tt.ptr<bf16>>, tensor<128x64xi32> loc(#loc113)
    %91 = tt.splat %arg2 : !tt.ptr<bf16> -> tensor<64x128x!tt.ptr<bf16>> loc(#loc114)
    %92 = tt.addptr %91, %88 : tensor<64x128x!tt.ptr<bf16>>, tensor<64x128xi32> loc(#loc114)
    %93 = arith.cmpi slt, %12, %10 : i32 loc(#loc115)
    %94 = arith.extui %93 : i1 to i32 loc(#loc116)
    %95 = arith.addi %2, %c1_i32 : i32 loc(#loc117)
    %96 = arith.muli %94, %95 : i32 loc(#loc118)
    %97 = arith.muli %96, %c128_i32 : i32 loc(#loc119)
    %98 = tt.expand_dims %32 {axis = 1 : i32} : tensor<128xi1> -> tensor<128x1xi1> loc(#loc120)
    %99 = tt.splat %10 : i32 -> tensor<1x64xi32> loc(#loc121)
    %100 = tt.broadcast %98 : tensor<128x1xi1> -> tensor<128x64xi1> loc(#loc122)
    %101 = tt.splat %arg6 : f32 -> tensor<128x64xf32> loc(#loc123)
    %102 = tt.broadcast %18 : tensor<128x1xi32> -> tensor<128x64xi32> loc(#loc124)
    %103 = tt.splat %10 : i32 -> tensor<64x1xi32> loc(#loc125)
    %104 = tt.broadcast %33 : tensor<1x128xi1> -> tensor<64x128xi1> loc(#loc126)
    %105:3 = scf.for %arg27 = %c0_i32 to %97 step %c64_i32 iter_args(%arg28 = %69#0, %arg29 = %69#1, %arg30 = %69#2) -> (tensor<128x128xf32>, tensor<128xf32>, tensor<128xf32>)  : i32 {
      %119 = tt.splat %arg27 : i32 -> tensor<1x64xi32> loc(#loc128)
      %120 = arith.addi %119, %70 : tensor<1x64xi32> loc(#loc128)
      %121 = arith.cmpi slt, %120, %99 : tensor<1x64xi32> loc(#loc121)
      %122 = tt.broadcast %121 : tensor<1x64xi1> -> tensor<128x64xi1> loc(#loc122)
      %123 = arith.andi %100, %122 : tensor<128x64xi1> loc(#loc122)
      %124 = arith.addi %7, %arg27 : i32 loc(#loc129)
      %125 = arith.muli %124, %arg15 : i32 loc(#loc130)
      %126 = tt.splat %125 : i32 -> tensor<128x64xi32> loc(#loc131)
      %127 = tt.addptr %90, %126 : tensor<128x64x!tt.ptr<bf16>>, tensor<128x64xi32> loc(#loc131)
      %128 = tt.load %127, %123, %cst_3 : tensor<128x64x!tt.ptr<bf16>> loc(#loc132)
      %129 = tt.dot %41, %128, %cst, inputPrecision = tf32 : tensor<128x128xbf16> * tensor<128x64xbf16> -> tensor<128x64xf32> loc(#loc133)
      %130 = arith.mulf %129, %101 : tensor<128x64xf32> loc(#loc123)
      %131 = tt.broadcast %120 : tensor<1x64xi32> -> tensor<128x64xi32> loc(#loc124)
      %132 = arith.cmpi sge, %102, %131 : tensor<128x64xi32> loc(#loc124)
      %133 = arith.select %132, %130, %cst_7 : tensor<128x64xi1>, tensor<128x64xf32> loc(#loc134)
      %134 = "tt.reduce"(%133) <{axis = 1 : i32}> ({
      ^bb0(%arg31: f32 loc(callsite(#loc1 at #loc135)), %arg32: f32 loc(callsite(#loc1 at #loc135))):
        %159 = arith.maxnumf %arg31, %arg32 : f32 loc(#loc175)
        tt.reduce.return %159 : f32 loc(#loc169)
      }) : (tensor<128x64xf32>) -> tensor<128xf32> loc(#loc169)
      %135 = arith.maxnumf %arg30, %134 : tensor<128xf32> loc(#loc136)
      %136 = tt.expand_dims %135 {axis = 1 : i32} : tensor<128xf32> -> tensor<128x1xf32> loc(#loc137)
      %137 = tt.broadcast %136 : tensor<128x1xf32> -> tensor<128x64xf32> loc(#loc138)
      %138 = arith.subf %133, %137 : tensor<128x64xf32> loc(#loc138)
      %139 = math.exp %138 : tensor<128x64xf32> loc(#loc139)
      %140 = "tt.reduce"(%139) <{axis = 1 : i32}> ({
      ^bb0(%arg31: f32 loc(callsite(#loc1 at #loc140)), %arg32: f32 loc(callsite(#loc1 at #loc140))):
        %159 = arith.addf %arg31, %arg32 : f32 loc(#loc176)
        tt.reduce.return %159 : f32 loc(#loc171)
      }) : (tensor<128x64xf32>) -> tensor<128xf32> loc(#loc171)
      %141 = arith.subf %arg30, %135 : tensor<128xf32> loc(#loc141)
      %142 = math.exp %141 : tensor<128xf32> loc(#loc142)
      %143 = tt.expand_dims %142 {axis = 1 : i32} : tensor<128xf32> -> tensor<128x1xf32> loc(#loc143)
      %144 = tt.broadcast %143 : tensor<128x1xf32> -> tensor<128x128xf32> loc(#loc144)
      %145 = arith.mulf %arg28, %144 : tensor<128x128xf32> loc(#loc144)
      %146 = tt.splat %arg27 : i32 -> tensor<64x1xi32> loc(#loc145)
      %147 = arith.addi %146, %80 : tensor<64x1xi32> loc(#loc145)
      %148 = arith.cmpi slt, %147, %103 : tensor<64x1xi32> loc(#loc125)
      %149 = tt.broadcast %148 : tensor<64x1xi1> -> tensor<64x128xi1> loc(#loc126)
      %150 = arith.andi %104, %149 : tensor<64x128xi1> loc(#loc126)
      %151 = arith.muli %124, %arg17 : i32 loc(#loc146)
      %152 = tt.splat %151 : i32 -> tensor<64x128xi32> loc(#loc147)
      %153 = tt.addptr %92, %152 : tensor<64x128x!tt.ptr<bf16>>, tensor<64x128xi32> loc(#loc147)
      %154 = tt.load %153, %150, %cst_2 : tensor<64x128x!tt.ptr<bf16>> loc(#loc148)
      %155 = arith.truncf %139 : tensor<128x64xf32> to tensor<128x64xbf16> loc(#loc149)
      %156 = tt.dot %155, %154, %145, inputPrecision = tf32 : tensor<128x64xbf16> * tensor<64x128xbf16> -> tensor<128x128xf32> loc(#loc150)
      %157 = arith.mulf %arg29, %142 : tensor<128xf32> loc(#loc151)
      %158 = arith.addf %157, %140 : tensor<128xf32> loc(#loc152)
      scf.yield %156, %158, %135 : tensor<128x128xf32>, tensor<128xf32>, tensor<128xf32> loc(#loc153)
    } {tt.divisibility_arg1 = dense<64> : tensor<1xi32>, tt.loop_unroll_factor = 1 : i32} loc(#loc127)
    %106 = tt.expand_dims %105#1 {axis = 1 : i32} : tensor<128xf32> -> tensor<128x1xf32> loc(#loc154)
    %107 = tt.broadcast %106 : tensor<128x1xf32> -> tensor<128x128xf32> loc(#loc155)
    %108 = arith.divf %105#0, %107 : tensor<128x128xf32> loc(#loc155)
    %109 = tt.splat %arg19 : i32 -> tensor<128x1xi32> loc(#loc156)
    %110 = arith.muli %20, %109 : tensor<128x1xi32> loc(#loc156)
    %111 = arith.muli %1, %arg20 : i32 loc(#loc157)
    %112 = tt.splat %111 : i32 -> tensor<128x1xi32> loc(#loc158)
    %113 = arith.addi %110, %112 : tensor<128x1xi32> loc(#loc158)
    %114 = tt.broadcast %113 : tensor<128x1xi32> -> tensor<128x128xi32> loc(#loc159)
    %115 = arith.addi %114, %28 : tensor<128x128xi32> loc(#loc159)
    %116 = tt.splat %arg11 : !tt.ptr<bf16> -> tensor<128x128x!tt.ptr<bf16>> loc(#loc160)
    %117 = tt.addptr %116, %115 : tensor<128x128x!tt.ptr<bf16>>, tensor<128x128xi32> loc(#loc160)
    %118 = arith.truncf %108 : tensor<128x128xf32> to tensor<128x128xbf16> loc(#loc161)
    tt.store %117, %118, %38 : tensor<128x128x!tt.ptr<bf16>> loc(#loc161)
    tt.return loc(#loc162)
  } loc(#loc)
} loc(#loc)
#loc2 = loc("/opt/conda/envs/rl/lib/python3.10/site-packages/vllm/attention/ops/prefix_prefill.py":86:30)
#loc3 = loc("/opt/conda/envs/rl/lib/python3.10/site-packages/vllm/attention/ops/prefix_prefill.py":87:29)
#loc4 = loc("/opt/conda/envs/rl/lib/python3.10/site-packages/vllm/attention/ops/prefix_prefill.py":88:28)
#loc5 = loc("/opt/conda/envs/rl/lib/python3.10/site-packages/vllm/attention/ops/prefix_prefill.py":90:30)
#loc6 = loc("/opt/conda/envs/rl/lib/python3.10/site-packages/vllm/attention/ops/prefix_prefill.py":92:43)
#loc7 = loc("/opt/conda/envs/rl/lib/python3.10/site-packages/vllm/attention/ops/prefix_prefill.py":92:32)
#loc8 = loc("/opt/conda/envs/rl/lib/python3.10/site-packages/vllm/attention/ops/prefix_prefill.py":93:57)
#loc9 = loc("/opt/conda/envs/rl/lib/python3.10/site-packages/vllm/attention/ops/prefix_prefill.py":93:43)
#loc10 = loc("/opt/conda/envs/rl/lib/python3.10/site-packages/vllm/attention/ops/prefix_prefill.py":94:68)
#loc11 = loc("/opt/conda/envs/rl/lib/python3.10/site-packages/vllm/attention/ops/prefix_prefill.py":94:42)
#loc12 = loc("/opt/conda/envs/rl/lib/python3.10/site-packages/vllm/attention/ops/prefix_prefill.py":96:27)
#loc13 = loc("/opt/conda/envs/rl/lib/python3.10/site-packages/vllm/attention/ops/prefix_prefill.py":97:44)
#loc14 = loc("/opt/conda/envs/rl/lib/python3.10/site-packages/vllm/attention/ops/prefix_prefill.py":104:32)
#loc15 = loc("/opt/conda/envs/rl/lib/python3.10/site-packages/vllm/attention/ops/prefix_prefill.py":108:29)
#loc16 = loc("/opt/conda/envs/rl/lib/python3.10/site-packages/vllm/attention/ops/prefix_prefill.py":110:26)
#loc17 = loc("/opt/conda/envs/rl/lib/python3.10/site-packages/vllm/attention/ops/prefix_prefill.py":112:26)
#loc18 = loc("/opt/conda/envs/rl/lib/python3.10/site-packages/vllm/attention/ops/prefix_prefill.py":114:33)
#loc19 = loc("/opt/conda/envs/rl/lib/python3.10/site-packages/vllm/attention/ops/prefix_prefill.py":116:52)
#loc20 = loc("/opt/conda/envs/rl/lib/python3.10/site-packages/vllm/attention/ops/prefix_prefill.py":116:45)
#loc21 = loc("/opt/conda/envs/rl/lib/python3.10/site-packages/vllm/attention/ops/prefix_prefill.py":116:64)
#loc22 = loc("/opt/conda/envs/rl/lib/python3.10/site-packages/vllm/attention/ops/prefix_prefill.py":117:24)
#loc23 = loc("/opt/conda/envs/rl/lib/python3.10/site-packages/vllm/attention/ops/prefix_prefill.py":117:13)
#loc24 = loc("/opt/conda/envs/rl/lib/python3.10/site-packages/vllm/attention/ops/prefix_prefill.py":117:43)
#loc25 = loc("/opt/conda/envs/rl/lib/python3.10/site-packages/vllm/attention/ops/prefix_prefill.py":117:36)
#loc26 = loc("/opt/conda/envs/rl/lib/python3.10/site-packages/vllm/attention/ops/prefix_prefill.py":120:44)
#loc27 = loc("/opt/conda/envs/rl/lib/python3.10/site-packages/vllm/attention/ops/prefix_prefill.py":121:8)
#loc28 = loc("/opt/conda/envs/rl/lib/python3.10/site-packages/vllm/attention/ops/prefix_prefill.py":121:14)
#loc29 = loc("/opt/conda/envs/rl/lib/python3.10/site-packages/vllm/attention/ops/prefix_prefill.py":124:30)
#loc30 = loc("/opt/conda/envs/rl/lib/python3.10/site-packages/vllm/attention/ops/prefix_prefill.py":125:35)
#loc31 = loc("/opt/conda/envs/rl/lib/python3.10/site-packages/vllm/attention/ops/prefix_prefill.py":125:17)
#loc32 = loc("/opt/conda/envs/rl/lib/python3.10/site-packages/vllm/attention/ops/prefix_prefill.py":123:20)
#loc33 = loc("/opt/conda/envs/rl/lib/python3.10/site-packages/vllm/attention/ops/prefix_prefill.py":123:16)
#loc34 = loc("/opt/conda/envs/rl/lib/python3.10/site-packages/vllm/attention/ops/prefix_prefill.py":138:41)
#loc35 = loc("/opt/conda/envs/rl/lib/python3.10/site-packages/vllm/attention/ops/prefix_prefill.py":138:29)
#loc36 = loc("/opt/conda/envs/rl/lib/python3.10/site-packages/vllm/attention/ops/prefix_prefill.py":142:60)
#loc37 = loc("/opt/conda/envs/rl/lib/python3.10/site-packages/vllm/attention/ops/prefix_prefill.py":143:20)
#loc38 = loc("/opt/conda/envs/rl/lib/python3.10/site-packages/vllm/attention/ops/prefix_prefill.py":143:32)
#loc39 = loc("/opt/conda/envs/rl/lib/python3.10/site-packages/vllm/attention/ops/prefix_prefill.py":143:37)
#loc40 = loc("/opt/conda/envs/rl/lib/python3.10/site-packages/vllm/attention/ops/prefix_prefill.py":144:34)
#loc41 = loc("/opt/conda/envs/rl/lib/python3.10/site-packages/vllm/attention/ops/prefix_prefill.py":145:31)
#loc42 = loc("/opt/conda/envs/rl/lib/python3.10/site-packages/vllm/attention/ops/prefix_prefill.py":145:12)
#loc43 = loc("/opt/conda/envs/rl/lib/python3.10/site-packages/vllm/attention/ops/prefix_prefill.py":149:31)
#loc44 = loc("/opt/conda/envs/rl/lib/python3.10/site-packages/vllm/attention/ops/prefix_prefill.py":150:35)
#loc45 = loc("/opt/conda/envs/rl/lib/python3.10/site-packages/vllm/attention/ops/prefix_prefill.py":151:27)
#loc46 = loc("/opt/conda/envs/rl/lib/python3.10/site-packages/vllm/attention/ops/prefix_prefill.py":151:17)
#loc47 = loc("/opt/conda/envs/rl/lib/python3.10/site-packages/vllm/attention/ops/prefix_prefill.py":170:55)
#loc48 = loc("/opt/conda/envs/rl/lib/python3.10/site-packages/vllm/attention/ops/prefix_prefill.py":172:14)
#loc49 = loc("/opt/conda/envs/rl/lib/python3.10/site-packages/vllm/attention/ops/prefix_prefill.py":135:28)
#loc50 = loc("/opt/conda/envs/rl/lib/python3.10/site-packages/vllm/attention/ops/prefix_prefill.py":139:33)
#loc51 = loc("/opt/conda/envs/rl/lib/python3.10/site-packages/vllm/attention/ops/prefix_prefill.py":139:21)
#loc52 = loc("/opt/conda/envs/rl/lib/python3.10/site-packages/vllm/attention/ops/prefix_prefill.py":138:21)
#loc53 = loc("/opt/conda/envs/rl/lib/python3.10/site-packages/vllm/attention/ops/prefix_prefill.py":142:26)
#loc54 = loc("/opt/conda/envs/rl/lib/python3.10/site-packages/vllm/attention/ops/prefix_prefill.py":142:46)
#loc55 = loc("/opt/conda/envs/rl/lib/python3.10/site-packages/vllm/attention/ops/prefix_prefill.py":143:12)
#loc56 = loc("/opt/conda/envs/rl/lib/python3.10/site-packages/vllm/attention/ops/prefix_prefill.py":144:24)
#loc57 = loc("/opt/conda/envs/rl/lib/python3.10/site-packages/vllm/attention/ops/prefix_prefill.py":144:46)
#loc58 = loc("/opt/conda/envs/rl/lib/python3.10/site-packages/vllm/attention/ops/prefix_prefill.py":144:60)
#loc59 = loc("/opt/conda/envs/rl/lib/python3.10/site-packages/vllm/attention/ops/prefix_prefill.py":144:12)
#loc60 = loc("/opt/conda/envs/rl/lib/python3.10/site-packages/vllm/attention/ops/prefix_prefill.py":148:31)
#loc61 = loc("/opt/conda/envs/rl/lib/python3.10/site-packages/vllm/attention/ops/prefix_prefill.py":149:17)
#loc62 = loc("/opt/conda/envs/rl/lib/python3.10/site-packages/vllm/attention/ops/prefix_prefill.py":150:17)
#loc63 = loc("/opt/conda/envs/rl/lib/python3.10/site-packages/vllm/attention/ops/prefix_prefill.py":153:21)
#loc64 = loc("/opt/conda/envs/rl/lib/python3.10/site-packages/vllm/attention/ops/prefix_prefill.py":153:34)
#loc65 = loc("/opt/conda/envs/rl/lib/python3.10/site-packages/vllm/attention/ops/prefix_prefill.py":153:11)
#loc66 = loc("/opt/conda/envs/rl/lib/python3.10/site-packages/vllm/attention/ops/prefix_prefill.py":157:30)
#loc67 = loc("/opt/conda/envs/rl/lib/python3.10/site-packages/vllm/attention/ops/prefix_prefill.py":158:50)
#loc68 = loc("/opt/conda/envs/rl/lib/python3.10/site-packages/vllm/attention/ops/prefix_prefill.py":158:17)
#loc69 = loc("/opt/conda/envs/rl/lib/python3.10/site-packages/vllm/attention/ops/prefix_prefill.py":156:26)
#loc70 = loc("/opt/conda/envs/rl/lib/python3.10/site-packages/vllm/attention/ops/prefix_prefill.py":156:16)
#loc71 = loc("/opt/conda/envs/rl/lib/python3.10/site-packages/vllm/attention/ops/prefix_prefill.py":161:39)
#loc72 = loc("/opt/conda/envs/rl/lib/python3.10/site-packages/vllm/attention/ops/prefix_prefill.py":161:29)
#loc73 = loc("/opt/conda/envs/rl/lib/python3.10/site-packages/vllm/attention/ops/prefix_prefill.py":169:23)
#loc74 = loc("/opt/conda/envs/rl/lib/python3.10/site-packages/vllm/attention/ops/prefix_prefill.py":171:22)
#loc75 = loc("/opt/conda/envs/rl/lib/python3.10/site-packages/triton/language/standard.py":184:40)
#loc77 = loc("/opt/conda/envs/rl/lib/python3.10/site-packages/triton/language/standard.py":163:27)
#loc78 = loc("/opt/conda/envs/rl/lib/python3.10/site-packages/vllm/attention/ops/prefix_prefill.py":190:31)
#loc79 = loc("/opt/conda/envs/rl/lib/python3.10/site-packages/vllm/attention/ops/prefix_prefill.py":191:29)
#loc80 = loc("/opt/conda/envs/rl/lib/python3.10/site-packages/vllm/attention/ops/prefix_prefill.py":191:24)
#loc81 = loc("/opt/conda/envs/rl/lib/python3.10/site-packages/vllm/attention/ops/prefix_prefill.py":191:19)
#loc82 = loc("/opt/conda/envs/rl/lib/python3.10/site-packages/triton/language/standard.py":267:36)
#loc84 = loc("/opt/conda/envs/rl/lib/python3.10/site-packages/triton/language/standard.py":256:15)
#loc85 = loc("/opt/conda/envs/rl/lib/python3.10/site-packages/vllm/attention/ops/prefix_prefill.py":193:29)
#loc86 = loc("/opt/conda/envs/rl/lib/python3.10/site-packages/vllm/attention/ops/prefix_prefill.py":193:23)
#loc87 = loc("/opt/conda/envs/rl/lib/python3.10/site-packages/vllm/attention/ops/prefix_prefill.py":194:26)
#loc88 = loc("/opt/conda/envs/rl/lib/python3.10/site-packages/vllm/attention/ops/prefix_prefill.py":194:20)
#loc89 = loc("/opt/conda/envs/rl/lib/python3.10/site-packages/vllm/attention/ops/prefix_prefill.py":197:11)
#loc90 = loc("/opt/conda/envs/rl/lib/python3.10/site-packages/vllm/attention/ops/prefix_prefill.py":202:28)
#loc91 = loc("/opt/conda/envs/rl/lib/python3.10/site-packages/vllm/attention/ops/prefix_prefill.py":202:50)
#loc92 = loc("/opt/conda/envs/rl/lib/python3.10/site-packages/vllm/attention/ops/prefix_prefill.py":202:17)
#loc93 = loc("/opt/conda/envs/rl/lib/python3.10/site-packages/vllm/attention/ops/prefix_prefill.py":200:26)
#loc94 = loc("/opt/conda/envs/rl/lib/python3.10/site-packages/vllm/attention/ops/prefix_prefill.py":200:16)
#loc95 = loc("/opt/conda/envs/rl/lib/python3.10/site-packages/vllm/attention/ops/prefix_prefill.py":205:39)
#loc96 = loc("/opt/conda/envs/rl/lib/python3.10/site-packages/vllm/attention/ops/prefix_prefill.py":205:29)
#loc97 = loc("/opt/conda/envs/rl/lib/python3.10/site-packages/vllm/attention/ops/prefix_prefill.py":211:17)
#loc98 = loc("/opt/conda/envs/rl/lib/python3.10/site-packages/vllm/attention/ops/prefix_prefill.py":213:24)
#loc99 = loc("/opt/conda/envs/rl/lib/python3.10/site-packages/vllm/attention/ops/prefix_prefill.py":215:20)
#loc100 = loc("/opt/conda/envs/rl/lib/python3.10/site-packages/vllm/attention/ops/prefix_prefill.py":215:28)
#loc101 = loc("/opt/conda/envs/rl/lib/python3.10/site-packages/vllm/attention/ops/prefix_prefill.py":216:8)
#loc102 = loc("/opt/conda/envs/rl/lib/python3.10/site-packages/vllm/attention/ops/prefix_prefill.py":218:20)
#loc103 = loc("/opt/conda/envs/rl/lib/python3.10/site-packages/vllm/attention/ops/prefix_prefill.py":218:31)
#loc104 = loc("/opt/conda/envs/rl/lib/python3.10/site-packages/vllm/attention/ops/prefix_prefill.py":218:58)
#loc105 = loc("/opt/conda/envs/rl/lib/python3.10/site-packages/vllm/attention/ops/prefix_prefill.py":218:44)
#loc106 = loc("/opt/conda/envs/rl/lib/python3.10/site-packages/vllm/attention/ops/prefix_prefill.py":219:20)
#loc107 = loc("/opt/conda/envs/rl/lib/python3.10/site-packages/vllm/attention/ops/prefix_prefill.py":219:13)
#loc108 = loc("/opt/conda/envs/rl/lib/python3.10/site-packages/vllm/attention/ops/prefix_prefill.py":220:20)
#loc109 = loc("/opt/conda/envs/rl/lib/python3.10/site-packages/vllm/attention/ops/prefix_prefill.py":220:31)
#loc110 = loc("/opt/conda/envs/rl/lib/python3.10/site-packages/vllm/attention/ops/prefix_prefill.py":220:58)
#loc111 = loc("/opt/conda/envs/rl/lib/python3.10/site-packages/vllm/attention/ops/prefix_prefill.py":220:44)
#loc112 = loc("/opt/conda/envs/rl/lib/python3.10/site-packages/vllm/attention/ops/prefix_prefill.py":221:13)
#loc113 = loc("/opt/conda/envs/rl/lib/python3.10/site-packages/vllm/attention/ops/prefix_prefill.py":222:17)
#loc114 = loc("/opt/conda/envs/rl/lib/python3.10/site-packages/vllm/attention/ops/prefix_prefill.py":223:17)
#loc115 = loc("/opt/conda/envs/rl/lib/python3.10/site-packages/vllm/attention/ops/prefix_prefill.py":226:44)
#loc116 = loc("/opt/conda/envs/rl/lib/python3.10/site-packages/vllm/attention/ops/prefix_prefill.py":226:68)
#loc117 = loc("/opt/conda/envs/rl/lib/python3.10/site-packages/vllm/attention/ops/prefix_prefill.py":230:48)
#loc118 = loc("/opt/conda/envs/rl/lib/python3.10/site-packages/vllm/attention/ops/prefix_prefill.py":230:38)
#loc119 = loc("/opt/conda/envs/rl/lib/python3.10/site-packages/vllm/attention/ops/prefix_prefill.py":230:53)
#loc120 = loc("/opt/conda/envs/rl/lib/python3.10/site-packages/vllm/attention/ops/prefix_prefill.py":236:34)
#loc121 = loc("/opt/conda/envs/rl/lib/python3.10/site-packages/vllm/attention/ops/prefix_prefill.py":237:51)
#loc122 = loc("/opt/conda/envs/rl/lib/python3.10/site-packages/vllm/attention/ops/prefix_prefill.py":237:21)
#loc123 = loc("/opt/conda/envs/rl/lib/python3.10/site-packages/vllm/attention/ops/prefix_prefill.py":242:14)
#loc124 = loc("/opt/conda/envs/rl/lib/python3.10/site-packages/vllm/attention/ops/prefix_prefill.py":244:42)
#loc125 = loc("/opt/conda/envs/rl/lib/python3.10/site-packages/vllm/attention/ops/prefix_prefill.py":262:51)
#loc126 = loc("/opt/conda/envs/rl/lib/python3.10/site-packages/vllm/attention/ops/prefix_prefill.py":262:21)
#loc127 = loc("/opt/conda/envs/rl/lib/python3.10/site-packages/vllm/attention/ops/prefix_prefill.py":231:24)
#loc128 = loc("/opt/conda/envs/rl/lib/python3.10/site-packages/vllm/attention/ops/prefix_prefill.py":237:32)
#loc129 = loc("/opt/conda/envs/rl/lib/python3.10/site-packages/vllm/attention/ops/prefix_prefill.py":235:52)
#loc130 = loc("/opt/conda/envs/rl/lib/python3.10/site-packages/vllm/attention/ops/prefix_prefill.py":235:63)
#loc131 = loc("/opt/conda/envs/rl/lib/python3.10/site-packages/vllm/attention/ops/prefix_prefill.py":235:20)
#loc132 = loc("/opt/conda/envs/rl/lib/python3.10/site-packages/vllm/attention/ops/prefix_prefill.py":234:20)
#loc133 = loc("/opt/conda/envs/rl/lib/python3.10/site-packages/vllm/attention/ops/prefix_prefill.py":241:23)
#loc134 = loc("/opt/conda/envs/rl/lib/python3.10/site-packages/vllm/attention/ops/prefix_prefill.py":245:22)
#loc136 = loc("/opt/conda/envs/rl/lib/python3.10/site-packages/vllm/attention/ops/prefix_prefill.py":252:31)
#loc137 = loc("/opt/conda/envs/rl/lib/python3.10/site-packages/vllm/attention/ops/prefix_prefill.py":253:29)
#loc138 = loc("/opt/conda/envs/rl/lib/python3.10/site-packages/vllm/attention/ops/prefix_prefill.py":253:24)
#loc139 = loc("/opt/conda/envs/rl/lib/python3.10/site-packages/vllm/attention/ops/prefix_prefill.py":253:19)
#loc141 = loc("/opt/conda/envs/rl/lib/python3.10/site-packages/vllm/attention/ops/prefix_prefill.py":255:29)
#loc142 = loc("/opt/conda/envs/rl/lib/python3.10/site-packages/vllm/attention/ops/prefix_prefill.py":255:23)
#loc143 = loc("/opt/conda/envs/rl/lib/python3.10/site-packages/vllm/attention/ops/prefix_prefill.py":256:26)
#loc144 = loc("/opt/conda/envs/rl/lib/python3.10/site-packages/vllm/attention/ops/prefix_prefill.py":256:20)
#loc145 = loc("/opt/conda/envs/rl/lib/python3.10/site-packages/vllm/attention/ops/prefix_prefill.py":262:32)
#loc146 = loc("/opt/conda/envs/rl/lib/python3.10/site-packages/vllm/attention/ops/prefix_prefill.py":260:63)
#loc147 = loc("/opt/conda/envs/rl/lib/python3.10/site-packages/vllm/attention/ops/prefix_prefill.py":260:20)
#loc148 = loc("/opt/conda/envs/rl/lib/python3.10/site-packages/vllm/attention/ops/prefix_prefill.py":259:20)
#loc149 = loc("/opt/conda/envs/rl/lib/python3.10/site-packages/vllm/attention/ops/prefix_prefill.py":264:17)
#loc150 = loc("/opt/conda/envs/rl/lib/python3.10/site-packages/vllm/attention/ops/prefix_prefill.py":266:24)
#loc151 = loc("/opt/conda/envs/rl/lib/python3.10/site-packages/vllm/attention/ops/prefix_prefill.py":268:20)
#loc152 = loc("/opt/conda/envs/rl/lib/python3.10/site-packages/vllm/attention/ops/prefix_prefill.py":268:28)
#loc153 = loc("/opt/conda/envs/rl/lib/python3.10/site-packages/vllm/attention/ops/prefix_prefill.py":269:8)
#loc154 = loc("/opt/conda/envs/rl/lib/python3.10/site-packages/vllm/attention/ops/prefix_prefill.py":271:20)
#loc155 = loc("/opt/conda/envs/rl/lib/python3.10/site-packages/vllm/attention/ops/prefix_prefill.py":271:16)
#loc156 = loc("/opt/conda/envs/rl/lib/python3.10/site-packages/vllm/attention/ops/prefix_prefill.py":274:64)
#loc157 = loc("/opt/conda/envs/rl/lib/python3.10/site-packages/vllm/attention/ops/prefix_prefill.py":275:24)
#loc158 = loc("/opt/conda/envs/rl/lib/python3.10/site-packages/vllm/attention/ops/prefix_prefill.py":275:13)
#loc159 = loc("/opt/conda/envs/rl/lib/python3.10/site-packages/vllm/attention/ops/prefix_prefill.py":275:36)
#loc160 = loc("/opt/conda/envs/rl/lib/python3.10/site-packages/vllm/attention/ops/prefix_prefill.py":276:21)
#loc161 = loc("/opt/conda/envs/rl/lib/python3.10/site-packages/vllm/attention/ops/prefix_prefill.py":278:13)
#loc162 = loc("/opt/conda/envs/rl/lib/python3.10/site-packages/vllm/attention/ops/prefix_prefill.py":280:4)
#loc163 = loc(callsite(#loc75 at #loc76))
#loc165 = loc(callsite(#loc77 at #loc75))
#loc166 = loc(callsite(#loc82 at #loc83))
#loc168 = loc(callsite(#loc84 at #loc82))
#loc169 = loc(callsite(#loc75 at #loc135))
#loc171 = loc(callsite(#loc82 at #loc140))
#loc173 = loc(callsite(#loc165 at #loc76))
#loc174 = loc(callsite(#loc168 at #loc83))
#loc175 = loc(callsite(#loc165 at #loc135))
#loc176 = loc(callsite(#loc168 at #loc140))
